DQN_Improved_model.pth (torch, 72374 bytes, 6 tensors)

layer1.weight f4 [128, 4]
0	0xbe82bd57	-0.2553508
1	0xbe6f2151	-0.23352553
2	0xbeae23d9	-0.34011725
3	0xbd07d0a6	-0.033157967
4	0x3ebecefe	0.37267298
5	0x3eccd799	0.40008238
6	0x3dd399b9	0.10332055
7	0xbea51faf	-0.32250735
8	0x3ec12324	0.37722123
9	0xbec50735	-0.3848206
10	0x3f6442a3	0.8916418
11	0x3d89875a	0.067152694
12	0xbd555e7e	-0.052092068
13	0x3e2cdc14	0.16880828
14	0x3a2d18af	0.00066031044
15	0x3dcaca04	0.09901813
16	0xbe6b3fc8	-0.2297355
17	0x3ec49465	0.38394466
18	0xbd068764	-0.032843962
19	0x3ec527b9	0.38506868
20	0xbedfa88b	-0.43683276
21	0x3eed619f	0.4636354
22	0x3efd69dd	0.4949483
23	0x3e03775d	0.12838502
24	0x3e7dda19	0.24790229
25	0x3e373be2	0.17893937
26	0xbf6f1098	-0.93384695
27	0xbef1facc	-0.47261655
28	0xbcc0aa30	-0.023518652
29	0xbd5b696a	-0.053567328
30	0x3fc08bf2	1.5042708
31	0x3d9316e8	0.071821034
32	0xbe136acd	-0.1439621
33	0x3def8fd0	0.11697352
34	0xbb8651e1	-0.004099116
35	0x3e9d95ae	0.3077826
36	0x3eb698dd	0.356635
37	0xbedc1a47	-0.42988798
38	0xbfeec297	-1.8653134
39	0xbf2a41a6	-0.6650642
40	0x3ec02185	0.37525573
41	0x3e11f3cc	0.14253157
42	0xbebf5f11	-0.37377217
43	0xbd8c8b90	-0.06862557
44	0x3f04dfe9	0.5190416
45	0x3c9f946c	0.019479953
46	0x3f1385cb	0.57626027
47	0x3e12677d	0.1429729
48	0xbd2cf2c8	-0.04222372
49	0x3d929d2c	0.071588844
50	0xbdd51156	-0.10403697
51	0xbc911723	-0.017711228
52	0x3ec90b1f	0.39266297
53	0xbe69b9c4	-0.2282477
54	0xbfb0c482	-1.380997
55	0xbed2c9d0	-0.41169596
56	0xbecb2e26	-0.39683646
57	0x3ed80949	0.42194584
58	0x3f63e566	0.8902191
59	0x3ee1aea1	0.44078544
60	0x3efc04f4	0.4922253
61	0x3e98d5af	0.29850528
62	0x3f0d47dc	0.55187774
63	0x3e5e398e	0.21701643
64	0x3ead9181	0.33900073
65	0x3eb5a075	0.35473981
66	0x3e50d94b	0.2039539
67	0xbe910abd	-0.28328505
68	0xbeace853	-0.33771
69	0x3e2fa35f	0.17152165
70	0x3fa32d5d	1.2748219
71	0x3edd5a8f	0.43233153
72	0x3dc64999	0.096820064
73	0xbeaac7bc	-0.3335551
74	0x3f401ea3	0.7504675
75	0xbe9198ed	-0.28436986
76	0xbe372bde	-0.17887828
77	0xbeecd18d	-0.46253625
78	0xbeeee75b	-0.46660885
79	0xbeb3cdb9	-0.3511789
80	0xbd0452e2	-0.032305606
81	0xbbd64715	-0.0065392354
82	0x3f6d883d	0.9278601
83	0x3ed67050	0.41882563
84	0xbea3db35	-0.3200318
85	0x3edc9d33	0.43088683
86	0xbf8cc8ca	-1.0998776
87	0xbeed69ae	-0.4636969
88	0xbf7f3e67	-0.99704593
89	0x3d83e7e7	0.06440716
90	0x3f38402a	0.71972907
91	0xbe15abfe	-0.14616391
92	0x3e7f4c96	0.24931559
93	0xbee924fc	-0.4553603
94	0xbf45d2f6	-0.77275026
95	0x3e0f5f7f	0.14001273
96	0xbe9dfac1	-0.30855373
97	0xbe88ee70	-0.26744413
98	0xbe8d7b58	-0.27633166
99	0xbe5cef1f	-0.21575592
100	0xbe8aa699	-0.2708023
101	0x3dd6e92e	0.10493694
102	0x3fa6f0e1	1.304226
103	0x3e759dbd	0.23985954
104	0xbe041127	-0.12897168
105	0x3e07a7c9	0.13247599
106	0xbef8e680	-0.48613358
107	0xbe9297ba	-0.28631383
108	0xbd218231	-0.0394308
109	0x3d49ef7a	0.04930065
110	0xbfcb2003	-1.5869144
111	0xbdeaacab	-0.11458715
112	0x3e9d4d5f	0.30723092
113	0xbe8200ef	-0.25391337
114	0x3e95f8c9	0.2929137
115	0x3e4bf56f	0.19917844
116	0xbf2b56f4	-0.66929555
117	0x3eb16c30	0.34652853
118	0x3facb382	1.3492281
119	0x3f05f727	0.5233025
120	0x3ed585c3	0.41703615
121	0x3e650365	0.22364576
122	0xbf8e4abb	-1.1116556
123	0xbe76c211	-0.24097468
124	0xbeee76c8	-0.46574998
125	0x3e8c302a	0.27380496
126	0x3f24a45c	0.6431329
127	0x3e29295a	0.1651968
128	0x3e0aedf2	0.13567331
129	0x3f0aa3f8	0.54156446
130	0xbeb81833	-0.35955963
131	0xbec19551	-0.37809232
132	0xbee122c5	-0.4397184
133	0x3e7b205f	0.24524067
134	0x3fdc2686	1.7199256
135	0x3f0401bd	0.5156515
136	0xbeac8e45	-0.33702293
137	0x3e197f38	0.14989936
138	0x3fc64bf6	1.5491931
139	0x3eac47c8	0.33648515
140	0x3f0c4df6	0.5480646
141	0xbb8817c0	-0.004153222
142	0x3c58b66c	0.0132270865
143	0x3eadb194	0.33924544
144	0xbf13d27e	-0.5774306
145	0x3d40e5c4	0.04709412
146	0x3e4fa953	0.20279436
147	0xbd0bbb93	-0.03411443
148	0xbebb432b	-0.36574683
149	0xbf142e0a	-0.5788275
150	0xbeaec3df	-0.34133813
151	0xbef84d45	-0.48496452
152	0x3f2fe5b5	0.6870988
153	0xbecdf916	-0.402291
154	0xbe8504d5	-0.2598025
155	0x3d00a397	0.03140601
156	0x3e4d50e6	0.20050392
157	0x3ec6d2dd	0.3883275
158	0x3f493c56	0.7860769
159	0x3dd7b255	0.10532061
160	0xbefeb80a	-0.49749786
161	0x3da28483	0.07935431
162	0x3fb783ad	1.4337059
163	0x3e8b5dfd	0.27220145
164	0x3f09b4e7	0.5379166
165	0xbee46ad8	-0.44612765
166	0x3e5355a4	0.20638138
167	0x3e8bc180	0.27296066
168	0xbd9e5dc9	-0.07732732
169	0x3d1431fe	0.03618049
170	0x3fc1b57f	1.5133513
171	0x3e6aceb5	0.22930415
172	0x3e9c616b	0.30543074
173	0xbe2514f8	-0.1612128
174	0xbfc1fa23	-1.5154461
175	0xbeb73b00	-0.357872
176	0xbf45113f	-0.7697944
177	0x3e96100e	0.29309124
178	0x3f0023b6	0.5005449
179	0xbe6254cd	-0.22102661
180	0x3e95e095	0.29272905
181	0xbe2bf0b2	-0.16791037
182	0xbf716943	-0.9430124
183	0xbec28555	-0.3799235
184	0x3f29a8ea	0.6627337
185	0x3ec80809	0.3906863
186	0xbdd1cf6f	-0.10244643
187	0x3dc43dcb	0.095820986
188	0x3e0391af	0.12848543
189	0x3e84c1d7	0.25929138
190	0xbfa497a9	-1.2858783
191	0xbe88a0ec	-0.26685274
192	0xbe87bb1e	-0.26509947
193	0x3e07140c	0.13191241
194	0xbd050d8c	-0.032483622
195	0x3e952395	0.2912871
196	0xbdbcad45	-0.09212736
197	0x3ecc3b03	0.39888772
198	0x3ea387b4	0.3193947
199	0xbec41a5f	-0.3830137
200	0x3d8985ad	0.0671495
201	0x3e7209f8	0.23636615
202	0xbef3d11f	-0.47620484
203	0x3dbb1624	0.09135082
204	0x3d552ee8	0.052046686
205	0xbeafc19c	-0.343274
206	0xbf0a88cf	-0.54115003
207	0x3c19d015	0.0093879895
208	0x3ea34d96	0.3189513
209	0xbeb4f171	-0.35340455
210	0xbfa17374	-1.2613358
211	0xbe187798	-0.14889371
212	0x3e8a406b	0.27002272
213	0xbd977d74	-0.07396975
214	0xbf43bdd7	-0.7646155
215	0x3ca576a7	0.02019818
216	0xbea08dbf	-0.31358144
217	0xbe2b5ff7	-0.16735826
218	0x3f2b6889	0.66956383
219	0xbe84138e	-0.2579617
220	0xbe94842c	-0.2900709
221	0xbe134227	-0.14380704
222	0x3f3426d8	0.7037177
223	0xbddf496f	-0.10902678
224	0x3cc5fcb9	0.02416836
225	0xbef4875a	-0.47759515
226	0xbe040491	-0.12892367
227	0x3d9ea16d	0.07745633
228	0xbe3d880f	-0.18508933
229	0xbed2a3fe	-0.4114074
230	0x3f9b8486	1.2149818
231	0x3e987ffc	0.29785144
232	0x3ee9734f	0.45595786
233	0xbe8bce6b	-0.27305922
234	0xbfa44aad	-1.2835289
235	0xbee424d2	-0.44559342
236	0xbeb3c6cc	-0.35112607
237	0xbea6eaff	-0.32601163
238	0x3ef0f4e5	0.4706184
239	0xbd724823	-0.059150826
240	0x3ebfdac0	0.3747158
241	0x3dcb4512	0.099252835
242	0x3e989a81	0.29805377
243	0x3db5fe7c	0.0888643
244	0xbefd1ab0	-0.49434423
245	0xbea0d794	-0.31414473
246	0x3e7980d9	0.24365558
247	0xbd9cc50d	-0.07654772
248	0x3d08d3e6	0.033405207
249	0x3df6405f	0.120239966
250	0x3c38c715	0.011277934
251	0x3e5436d8	0.20724046
252	0xbd642e6c	-0.055708334
253	0xbd26f857	-0.04076418
254	0xbf12abff	-0.57293695
255	0x3d84d04f	0.06485044

layer1.bias f4 [128]
0	0x3ef24fc2	0.47326475
1	0x3ecbdaca	0.3981536
2	0xbf0af3f4	-0.5427849
3	0xbea45916	-0.32099217
4	0xbe8e05ba	-0.27738744
5	0x3f25428b	0.6455466
6	0xbe23a069	-0.1597916
7	0xbe829c59	-0.2550991
8	0x3ef8ad03	0.48569497
9	0xbde5ec03	-0.11226656
10	0x3f257294	0.6462796
11	0x3eb6c9d0	0.35700846
12	0xbe7d85a1	-0.24758007
13	0xbede581a	-0.4342659
14	0x3f22bfec	0.635741
15	0x3db18caf	0.086694114
16	0x3f11cc0b	0.5695197
17	0xbefdf6a1	-0.49602225
18	0x3eae7b55	0.3407847
19	0xbdca4b17	-0.098776035
20	0xbf066c38	-0.5250888
21	0x3c37c13a	0.011215502
22	0x3e259ab7	0.161723
23	0x3cb38c55	0.021917501
24	0x3ef40c64	0.47665703
25	0xbea9cdb7	-0.3316476
26	0xbf009b49	-0.50236946
27	0xbe93e400	-0.28884888
28	0xbeba9b38	-0.36446548
29	0xbef395a5	-0.47575107
30	0xbeab9d95	-0.33518663
31	0x3f1aa42a	0.60406744
32	0x3e885ccc	0.26633298
33	0xbf0eee59	-0.5583244
34	0xbed56688	-0.41679788
35	0xbd4d8426	-0.050174855
36	0x3eafa42b	0.34304938
37	0xbda3e868	-0.08003312
38	0xbeab086d	-0.33404866
39	0x3ef1885e	0.47174352
40	0xbedd031a	-0.4316643
41	0xbedf392d	-0.4359831
42	0xbeaa662f	-0.33281085
43	0xbec66220	-0.38746738
44	0xbeb7e61b	-0.35917744
45	0xbeb6cbae	-0.3570227
46	0xbec6f147	-0.38855955
47	0xbf05f95e	-0.5233363
48	0x3f1f5aa7	0.622477
49	0x3ef2d138	0.47425246
50	0x3eb553f0	0.35415602
51	0x3f097a70	0.5370245
52	0x3ea7fa53	0.3280817
53	0x3e9fdc3a	0.31222707
54	0x3e9400cf	0.28906867
55	0x3e886a96	0.2664382
56	0x3e51823d	0.20459838
57	0xbe84c64b	-0.25932536
58	0xbedbe861	-0.4295073
59	0x3f266d07	0.6501011
60	0xbe8fc74f	-0.28081748
61	0x3f08f898	0.53504324
62	0x3eda0d46	0.42588252
63	0x3f0fb6c0	0.5613823
64	0x3f08e058	0.5346732
65	0xbed3f323	-0.41396436
66	0xbe0a7ea4	-0.13524872
67	0x3f0b97ce	0.5452851
68	0x3f0697ed	0.5257557
69	0xbecd1323	-0.40053663
70	0x3ea52272	0.32252842
71	0x3eec7d66	0.4618942
72	0x3ed723cf	0.42019507
73	0x3d82fb02	0.06395532
74	0x3f0af3a3	0.5427801
75	0xbe9dd1fb	-0.30824265
76	0xbd0d4d2e	-0.034497432
77	0xbecb12c4	-0.39662755
78	0xbe3e9232	-0.18610457
79	0xbeb72e12	-0.35777336
80	0xbebe5d02	-0.37180334
81	0x3f06ed21	0.5270558
82	0x3f28bfff	0.6591796
83	0xbec00972	-0.37507206
84	0x3ec58a1f	0.3858194
85	0x3eb21f42	0.34789473
86	0xbef787db	-0.48345837
87	0x3ed37408	0.41299462
88	0xbecd02fb	-0.40041336
89	0x3e617962	0.2201896
90	0xbd931021	-0.07180811
91	0x3e7f3f9a	0.24926606
92	0x3ee082ee	0.4384989
93	0x3ea29fdb	0.31762585
94	0x3e3f2d35	0.18669589
95	0x3ecc3176	0.39881486
96	0xbee49334	-0.44643557
97	0x3f27cf5f	0.655508
98	0xbebc636e	-0.3679461
99	0x3e8aa0f8	0.27075934
100	0x3f2572d5	0.64628345
101	0xbe9af032	-0.3026138
102	0x3e0ea510	0.13930154
103	0x3eb1efef	0.34753367
104	0x3f045a3a	0.51700175
105	0xbeca66cf	-0.39531562
106	0xbef65a5a	-0.48115808
107	0x3ed744c5	0.42044654
108	0xbea6fc3a	-0.3261431
109	0xbeef2fc7	-0.4671614
110	0xbf048b9a	-0.51775515
111	0x3f2943ff	0.6611938
112	0xbef3bc53	-0.47604617
113	0x3ed88b21	0.42293647
114	0xbec6253d	-0.38700286
115	0x3ec0923a	0.37611562
116	0xbef1611d	-0.47144404
117	0x3dfd1696	0.123578236
118	0x3ef3b630	0.47599936
119	0x3e9e390b	0.30902895
120	0x3e83070d	0.25591317
121	0xbeb48679	-0.35258844
122	0x3eab3800	0.33441162
123	0x3e3e6eac	0.18596905
124	0x3f1c1700	0.60972595
125	0xbe1cb5eb	-0.15303771
126	0xbf03553a	-0.5130192
127	0xbf0b42e2	-0.5439893

layer2.weight f4 [128, 128]
0	0x3d033c7a	0.032040097
1	0xbd9bf601	-0.07615281
2	0xbcb0c26d	-0.021577084
3	0xbd5a3b80	-0.0532794
4	0xbc69c261	-0.014267535
5	0xbdaf49a2	-0.08558966
6	0xbd83eb54	-0.0644137
7	0xbd24326e	-0.040087156
8	0xbbaf6173	-0.005352193
9	0x3d6882f2	0.056765504
10	0xbdb46f8e	-0.0881034
11	0xbd4e1434	-0.050312236
12	0x3d98bdf3	0.07458105
13	0x3d61f135	0.055161674
14	0xbdb9bcfe	-0.090692505
15	0xbc6c1406	-0.014409071
16	0xbd698e4e	-0.057020478
17	0x3bc2e705	0.00594795
18	0x3ccbcde9	0.024878459
19	0xbdbbb4d1	-0.09165347
20	0xbc598a74	-0.013277639
21	0xbda5680b	-0.08076485
22	0xbd634677	-0.055487122
23	0xbca17344	-0.019708283
24	0xbd60be8c	-0.05486922
25	0x3d541c2a	0.05178467
26	0x3d62d76d	0.055381227
27	0x3c34ae7f	0.011027931
28	0xbd229c38	-0.039699763
29	0xbd8d2957	-0.068926506
30	0xbcf51676	-0.029917937
31	0xbb7ee5ea	-0.0038894364
32	0x3d8b0e52	0.06789841
33	0xbd921195	-0.0713226
34	0xbc51480e	-0.012773527
35	0x3d39e0ff	0.04538059
36	0x3d7c5b96	0.06161078
37	0x3cde83ff	0.02716255
38	0x3c9d7e47	0.019225253
39	0x3c5ecf5e	0.013599245
40	0xbd9b20f3	-0.07574644
41	0xbd150ce8	-0.03638926
42	0xbda1f5ab	-0.079081856
43	0xbd44479e	-0.047919862
44	0xbd4aa7d7	-0.04947647
45	0x3d83451d	0.06409667
46	0x3d751c01	0.05984116
47	0x3d417155	0.047227222
48	0x3d562511	0.052281443
49	0x3cf87cea	0.030333001
50	0x3cf12539	0.029436694
51	0x3b776fca	0.003775584
52	0xbc9e9846	-0.019359719
53	0xbd3d8b7d	-0.046275605
54	0x3c51ebf0	0.0128126
55	0xba8081c8	-0.0009804303
56	0x3d46830b	0.048464816
57	0xbd9c83b5	-0.076423086
58	0xbd15b422	-0.03654874
59	0xbd529e45	-0.05142047
60	0xbd95fe47	-0.0732389
61	0xbd2b061c	-0.041753873
62	0xbce89609	-0.028391855
63	0x3d49a380	0.04922819
64	0xbdc0894f	-0.094011895
65	0x3d8e28e5	0.06941394
66	0x3c97d085	0.018532047
67	0xbca8a902	-0.020588402
68	0xbd98d8fb	-0.07463261
69	0xbd232535	-0.039830405
70	0xbdadaab5	-0.084798254
71	0x3cb6f57d	0.022333855
72	0x3caaf1be	0.020867225
73	0xbd4f2078	-0.050568074
74	0xbdb0befe	-0.08630179
75	0xbcafd52e	-0.021463957
76	0x3d5e83a3	0.054324757
77	0x3c7fe78c	0.01561917
78	0xbd9e439d	-0.0772774
79	0xbda09dab	-0.07842573
80	0x3d4c4c76	0.049877606
81	0x3c97f1d4	0.01854793
82	0xbdb4cc7e	-0.08828066
83	0xbda9fb39	-0.0829987
84	0xba44d794	-0.000750893
85	0x3989ee82	0.00026308378
86	0xbd34f225	-0.04417624
87	0xbc6544e2	-0.013993474
88	0xbd6067ff	-0.05478668
89	0x3d309f7f	0.043120857
90	0x3b114fd5	0.0022172828
91	0x3d54238a	0.051791705
92	0xbd93d09a	-0.07217522
93	0xbd1fb421	-0.038990144
94	0x3c0ab730	0.008466527
95	0xbc0910f5	-0.008365859
96	0x3d1b4e84	0.037916675
97	0xbda3823b	-0.07983824
98	0x3b9c726d	0.004774383
99	0xbd0709a5	-0.032968182
100	0x3cf915ee	0.030405965
101	0x3aa807bb	0.0012819687
102	0x3bc1a5cd	0.0059096576
103	0x3d3c8ff6	0.04603573
104	0xbd171c27	-0.036892083
105	0xbd969b16	-0.07353799
106	0x3b0b42fa	0.0021249638
107	0x3d56222e	0.05227869
108	0x3d9362f9	0.07196612
109	0xbd0d53fb	-0.03450392
110	0xbc80d8b2	-0.015728328
111	0xbd73976c	-0.05947058
112	0x3d9c6e18	0.07638186
113	0x3be8b6bf	0.007101863
114	0xbd0e4770	-0.034736097
115	0xbd334bb8	-0.043773383
116	0xbd93f66f	-0.07224738
117	0x3d0854cd	0.033283997
118	0xbd344fe8	-0.044021517
119	0xbd970c2e	-0.0737537
120	0xba83783e	-0.0010030342
121	0xbcf876a5	-0.030330012
122	0x3d3ac7ff	0.045600887
123	0xbd36d0ec	-0.044632837
124	0x3d815362	0.06314732
125	0x3d0106e3	0.03150071
126	0xbb9ffd44	-0.0048824865
127	0x3c6f2071	0.014595137
128	0xbdb7120a	-0.089389876
129	0x3df34744	0.11878827
130	0x3d10e1bc	0.035371527
131	0x3d444a30	0.047922313
132	0x3ae9d747	0.0017840647
133	0xbe3915f1	-0.18074776
134	0x3eabeefd	0.3358077
135	0xb9db15e0	-0.00041787233
136	0xbe68a455	-0.22718938
137	0x3f0a1c56	0.5394949
138	0x3e2cbdb1	0.16869237
139	0xbeb3d17f	-0.3512077
140	0x3d1dbb5d	0.03850876
141	0x3fd29430	1.6451473
142	0xbf43c978	-0.7647929
143	0xbf12c8d7	-0.5733771
144	0x3d076c1e	0.033062093
145	0xbd33dea3	-0.043913495
146	0xbe6ec24f	-0.2331631
147	0xbe2dbeec	-0.16967362
148	0x3d5870ff	0.052842136
149	0x3e72359b	0.23653261
150	0xbf075bae	-0.5287427
151	0xbe7ad223	-0.24494223
152	0x3ddc8396	0.107672855
153	0xbcf753e9	-0.030191379
154	0x3ecab1df	0.3958883
155	0x3fedeeb2	1.8588469
156	0xbdb79ffc	-0.089660615
157	0xbd961379	-0.07327933
158	0x3f265afb	0.64982575
159	0xbe914204	-0.28370678
160	0x3e290ad3	0.16508035
161	0xbc1cd382	-0.009571912
162	0xbc3dca1d	-0.011583832
163	0xbf125016	-0.5715345
164	0xbd8b5838	-0.06803936
165	0xbe3cd1d9	-0.18439426
166	0xbe7ce68d	-0.24697323
167	0xbe5e515a	-0.2171072
168	0x3cce9a8f	0.025220184
169	0xbcead3a8	-0.028665379
170	0xba30a006	-0.00067377125
171	0x3f6594ed	0.8968037
172	0xbb3b8af8	-0.0028616767
173	0x3f2080ac	0.6269634
174	0xbeea8221	-0.45802405
175	0x3f5de396	0.86675394
176	0xbe65cbe0	-0.22441053
177	0x3cdaf148	0.02672638
178	0x3d94dcad	0.07268653
179	0x3d209851	0.03920776
180	0x3f1a59fe	0.6029357
181	0x3eb61c51	0.3556848
182	0xbdc271de	-0.09494375
183	0xbeaf21d8	-0.34205508
184	0xbeb27be9	-0.3486016
185	0xbdc77cd2	-0.097406045
186	0x3fa6c7bc	1.3029704
187	0xbe6e8d07	-0.23295985
188	0xbebb888b	-0.36627612
189	0xbe87c94e	-0.2652077
190	0xbdc57612	-0.09641661
191	0x3e125af1	0.14292504
192	0x3e33e4cd	0.1756775
193	0x3d080e5f	0.03321683
194	0x3daf1447	0.085487895
195	0xbe0cc07a	-0.13745299
196	0xbf13a1de	-0.57668865
197	0x3c4f3f07	0.012649304
198	0x3e708909	0.23489775
199	0xbefdd8f3	-0.49579582
200	0xbf1e6b54	-0.6188252
201	0x3e6b587e	0.22982976
202	0xbd1d0d23	-0.038342606
203	0xbdfd3dc5	-0.12365297
204	0xbddedceb	-0.108819805
205	0xbebf9fbc	-0.37426555
206	0xbcea5c73	-0.028608536
207	0x3c3e4f78	0.0116156265
208	0xbc7e6185	-0.01552618
209	0xbf2508f0	-0.6446676
210	0xbf04d102	-0.5188142
211	0x3da898d4	0.08232275
212	0xbddd21dd	-0.107974745
213	0xbcc1dee0	-0.023665845
214	0x3f333938	0.70009184
215	0x3e5ca314	0.21546584
216	0x3f4f32f8	0.8093715
217	0x3e18ac7f	0.14909552
218	0x3b3344d6	0.0027354262
219	0xbf357cf9	-0.7089382
220	0xbea9191c	-0.3302697
221	0x3d23b93b	0.03997157
222	0xbdb02ef6	-0.08602707
223	0xbe9ee47c	-0.31033695
224	0xbd92985f	-0.07157969
225	0x3ceea8a5	0.02913315
226	0xbcc35a83	-0.02384687
227	0xbf7aa7aa	-0.97912085
228	0x3e067bb3	0.13133125
229	0x3edb21b0	0.4279914
230	0xbc2a2deb	-0.010386924
231	0xbdb5345c	-0.088478774
232	0xbd779747	-0.060447004
233	0x3d10ca72	0.035349317
234	0x3fb14d80	1.3851776
235	0x3e4940a2	0.19653562
236	0xba92be36	-0.0011195603
237	0x3d33113b	0.043717604
238	0x3f8b9435	1.0904604
239	0x3d919ca5	0.07109956
240	0xbdadcc42	-0.08486225
241	0xbe943b22	-0.28951365
242	0xbb96d6a8	-0.0046032257
243	0xbf022c41	-0.50848776
244	0x3f806b1d	1.0032688
245	0xbd891d41	-0.06695033
246	0x3e84c126	0.2592861
247	0xbf311691	-0.6917506
248	0x3dd8b8c3	0.105821155
249	0xbd86cc1a	-0.06581898
250	0x3f77d29c	0.9680574
251	0xbf25c9bd	-0.64760953
252	0x3c66695a	0.014063204
253	0xbd7e46f7	-0.062079396
254	0xbd26ca88	-0.040720493
255	0x3cff7444	0.03118337

layer2.bias f4 [128]
0	0xbd3fd0e9	-0.04683009
1	0xbc69f090	-0.014278546
2	0x3e256bd7	0.16154419
3	0x3e294839	0.16531457
4	0xbd710334	-0.058840945
5	0x3e43902a	0.19097963
6	0x3d64874e	0.0557931
7	0x3ea2f571	0.31827882
8	0xbbf2d81d	-0.0074110166
9	0x3e388df1	0.18022896
10	0x3cc29f4b	0.023757597
11	0x3c8ca6aa	0.017169315
12	0x3e2254ab	0.15852611
13	0xbd43ba00	-0.047784805
14	0x3e0cce58	0.13750589
15	0x3e8c1e37	0.27366802
16	0x3e7f9f16	0.2496303
17	0x3e55d6ba	0.20882693
18	0x3e69f3a0	0.22846842
19	0xbcb383ab	-0.02191337
20	0x3e7bc71e	0.24587676
21	0x3e44fc1c	0.19236797
22	0x3e85175f	0.25994393
23	0x3e0cd76d	0.13754053
24	0x3e8e565f	0.2780027
25	0xbe504565	-0.20338972
26	0x3e87529e	0.2643022
27	0x3e1d5420	0.15364122
28	0x3e828eb3	0.25499496
29	0x3e7af5a7	0.24507771
30	0xbc482c0c	-0.012217533
31	0xbd803a86	-0.062611625
32	0xbd60c74a	-0.054877557
33	0xbd945616	-0.07242982
34	0x3d60c6c4	0.054877058
35	0x3e6ce08a	0.2313253
36	0xbcc6cf39	-0.024268733
37	0xbda0323b	-0.07822081
38	0x3bb3302b	0.0054683886
39	0x3d6ba60d	0.057531405
40	0x3e397aa3	0.18113188
41	0xbd9afdc3	-0.075679325
42	0x3e38a00c	0.18029803
43	0xbd97dbe5	-0.074149884
44	0xbe1bf513	-0.15230207
45	0x3cedaa68	0.02901192
46	0x3e0747b3	0.13210945
47	0x3c482eaa	0.012218157
48	0xbda3970b	-0.079877935
49	0x3e3bdd24	0.18346077
50	0x3e1bf5cd	0.15230484
51	0x3e410e15	0.18853028
52	0x3dff34b9	0.12461228
53	0x3d8a992c	0.067674965
54	0xbd997eee	-0.07494913
55	0x3d315eee	0.043303423
56	0x3e74f70d	0.23922367
57	0x3e3d76c5	0.18502338
58	0x3e4264ed	0.18983813
59	0xbd2c9007	-0.042129543
60	0xbe4c956f	-0.1997888
61	0x3e4fb842	0.20285133
62	0x3e62456a	0.22096792
63	0xb9fe2232	-0.00048472133
64	0x3e8b3091	0.2718549
65	0xbd791e12	-0.060819693
66	0x3e5e0b65	0.21684034
67	0xbdcfcf26	-0.10146932
68	0xbd8e766e	-0.069561824
69	0x3cc5022e	0.02404889
70	0xbd6101a8	-0.05493322
71	0x3e3ff4e6	0.18745765
72	0x3e1f79e5	0.15573843
73	0xbd07e047	-0.033172872
74	0x3e5a0ad6	0.21293196
75	0x3e85e3da	0.261504
76	0xbcc761f5	-0.024338702
77	0x3e460dfc	0.19341272
78	0x3e119d83	0.14220242
79	0x3e0dd6b6	0.13851437
80	0x3e548f93	0.20757894
81	0xbe6b3731	-0.22970273
82	0xbd7676d8	-0.060171932
83	0xbd034c90	-0.032055438
84	0xbd9736f8	-0.07383531
85	0xbde969ac	-0.113971084
86	0x3c2d925a	0.010593975
87	0x3e14f370	0.14545989
88	0x3d1d752c	0.038441822
89	0x3e4087d8	0.1880182
90	0x3e52073e	0.20510575
91	0x3e3a8bca	0.18217388
92	0xbd527d45	-0.051388998
93	0x3e4602f8	0.1933707
94	0xbcb67d15	-0.02227644
95	0x3e770ec8	0.24126732
96	0x3e7685dd	0.24074502
97	0x3e6fb0f0	0.2340734
98	0xbd5de324	-0.054171696
99	0x3e1cec06	0.15324411
100	0xbe25764a	-0.16158405
101	0x3e82b145	0.2552587
102	0xbd44d45e	-0.04805409
103	0x3e56017f	0.20899008
104	0x3e86fa6e	0.26362938
105	0xbd8f4b7e	-0.06996821
106	0x3d08fa41	0.033441786
107	0xbda22c36	-0.07918589
108	0x3e81f21f	0.25380036
109	0x3cbd338f	0.023095874
110	0xbdd04b7c	-0.101706475
111	0xbdb0a07c	-0.0862436
112	0x3cc91db6	0.0245503
113	0x3e82936f	0.25503108
114	0xbceb8981	-0.02875209
115	0x3c730938	0.014833741
116	0x3e56305b	0.20916884
117	0x3d415a56	0.04720529
118	0x3a7bb2d5	0.0009601538
119	0xbdb814a8	-0.08988315
120	0xbd6d505f	-0.057937976
121	0xbdfe16a4	-0.12406662
122	0x3e447570	0.19185424
123	0xbe1b4a38	-0.15165031
124	0x3e642db4	0.2228306
125	0x3e29a301	0.16566087
126	0x3e537a0b	0.20652024
127	0x3dfafb77	0.12254994

layer3.weight f4 [2, 128]
0	0xbccad1a7	-0.024758173
1	0xbd96b0fe	-0.07357977
2	0x3f033c09	0.5126348
3	0x3e9734ea	0.29532558
4	0x3d60f198	0.0549179
5	0x3e55eb4f	0.20890544
6	0xbd38d658	-0.04512629
7	0x3ef748e3	0.48297796
8	0xbc276677	-0.010217301
9	0x3e611a6d	0.21982737
10	0xbd72fcc0	-0.059323072
11	0x3d7e0628	0.06201759
12	0x3e84c28c	0.25929677
13	0xbbeb16c2	-0.007174344
14	0x3ea9adb9	0.33140352
15	0x3e830cb1	0.2559562
16	0x3ec2a90c	0.38019598
17	0xbf3852e9	-0.7200151
18	0x3e9a4268	0.3012879
19	0x3cb99cec	0.022657834
20	0x3e1f7ac3	0.15574174
21	0x3e679cc7	0.226184
22	0x3ec8741d	0.39151087
23	0xbf4353a8	-0.76299524
24	0x3e4b540d	0.19856282
25	0xc015800b	-2.3359401
26	0x3eba3498	0.3636825
27	0x3e1d9cdc	0.15391868
28	0x3e609dad	0.21935149
29	0x3f63699f	0.8883304
30	0xbd5d3005	-0.054000873
31	0xbd8bd1cc	-0.06827125
32	0xbca5e135	-0.020248989
33	0xbd9b137b	-0.07572075
34	0xbd840f73	-0.06448259
35	0xbf1f0b0e	-0.62126243
36	0xbd8bce7e	-0.06826495
37	0xbb012802	-0.0019707684
38	0xbd3a5a21	-0.04549611
39	0x3d21ada3	0.039472234
40	0x3ea66da9	0.3250554
41	0xbc2d21e1	-0.010567159
42	0x3ea165f0	0.31523085
43	0xbcfb1511	-0.030649694
44	0xbf21369b	-0.62973946
45	0xbd244de0	-0.04011333
46	0x3e9a4b38	0.30135512
47	0xbd21149b	-0.03932629
48	0xb99bec25	-0.00029739845
49	0x3eb8c318	0.36086345
50	0x3e2d8efe	0.16949078
51	0x3e3e6727	0.18594037
52	0x3ecd04f0	0.4004283
53	0xbf5efd2b	-0.87105054
54	0xbcfcf7a7	-0.030879809
55	0x3c93c236	0.018036943
56	0x3ea24ffd	0.3170165
57	0x3e759f69	0.23986591
58	0x3eb21421	0.34780982
59	0xbd52c5a0	-0.051458
60	0xc00dd0be	-2.2158656
61	0x3ed4a7a9	0.41534165
62	0x3e7fe842	0.24990943
63	0xbc16e1f2	-0.009209143
64	0x3e86eeb8	0.26354003
65	0xbcee679e	-0.029102143
66	0x3ed04825	0.40680042
67	0x3cd06eaf	0.025443403
68	0xbd260609	-0.0405331
69	0xbc4a0dce	-0.012332393
70	0xbd1970f6	-0.037461244
71	0x3e991096	0.29895467
72	0x3e349df9	0.17638387
73	0xbd918e8b	-0.07107266
74	0x3ea489b8	0.3213632
75	0x3e98af95	0.29821458
76	0x3e52f66c	0.20601815
77	0x3eb184d9	0.34671667
78	0x3eab1fa0	0.33422565
79	0x3e79404b	0.24340932
80	0x3eb289d3	0.34870777
81	0xbf033a32	-0.51260674
82	0xbd3e401f	-0.04644787
83	0xbfa5624d	-1.2920624
84	0x3d54861a	0.0518857
85	0xc0076ac1	-2.1158907
86	0xbd8b7972	-0.06810273
87	0x3ea94004	0.33056653
88	0xbd886026	-0.06658964
89	0x3e4332b7	0.19062315
90	0x3e9c1e39	0.30491808
91	0x3e92e4d4	0.28690207
92	0x3d1a8319	0.03772268
93	0x3ea6f38b	0.32607684
94	0xbb6800cf	-0.0035400873
95	0x3e952418	0.291291
96	0x3e7cad9f	0.24675606
97	0x3e7a9a02	0.24472812
98	0xbcace62f	-0.021105854
99	0x3e8aae74	0.27086222
100	0xbf320c89	-0.6955038
101	0x3e86830c	0.26271856
102	0xbd412fcc	-0.047164723
103	0x3ed571ba	0.4168833
104	0x3e9620dc	0.29321945
105	0xbd810fad	-0.06301818
106	0x3c424bc5	0.011858885
107	0x3c7f7fb4	0.015594412
108	0x3ea59ec3	0.32347688
109	0xbc2545b2	-0.010087417
110	0xbe034321	-0.12818576
111	0x3d890497	0.066903286
112	0xbd34dc95	-0.044155676
113	0x3ebb0cfa	0.36533338
114	0x3bb54550	0.0055319443
115	0xbc01696b	-0.007898669
116	0x3e9064e6	0.2820198
117	0x3c1dbbcf	0.009627297
118	0xbd0c631a	-0.034274198
119	0x3d11611c	0.035493
120	0xbcfd43c2	-0.030916099
121	0xc0047ec0	-2.0702362
122	0x3ec4b1fa	0.38417035
123	0xbf44fc12	-0.7694713
124	0x3dbc76ce	0.09202348
125	0x3e9edec0	0.3102932
126	0x3dbc4203	0.09192278
127	0xbe5ad312	-0.2136958
128	0xbcffad9a	-0.03121071
129	0xbfe39e71	-1.7782727
130	0xbf36b198	-0.71364737
131	0x3eaa6904	0.33283246
132	0xbd1b68ed	-0.037941862
133	0x3e9a99a2	0.30195338
134	0x3cd4fd5d	0.02599972
135	0xbebf4b7b	-0.37362275
136	0x3cb91725	0.022594044
137	0x3ea47a00	0.3212433
138	0x3bc7902a	0.0060901837
139	0xbc79aff6	-0.015239706
140	0x3ea6ea06	0.3260042
141	0x3c4f3e6c	0.01264916
142	0x3e7371c1	0.23773862
143	0x3e934173	0.2876087
144	0x3e23e102	0.16003802
145	0x3f01b8ba	0.50672495
146	0x3eb26cbc	0.34848583
147	0xbcbb71a4	-0.022881337
148	0x3eb58b80	0.35457993
149	0x3eafd942	0.34345442
150	0x3e3c10ce	0.18365785
151	0x3f00bc21	0.5028706
152	0x3ea53a7c	0.32271183
153	0xbf36cedb	-0.71409386
154	0x3e5c4d04	0.21513754
155	0x3ec3160c	0.38102758
156	0x3ea4cab0	0.32185888
157	0xbeea7a78	-0.4579656
158	0x3d2bf044	0.041977182
159	0xbcca9335	-0.024728397
160	0xbd80b242	-0.06284
161	0x3cb00ad3	0.021489536
162	0x3d69fa64	0.057123557
163	0x3ef954fa	0.48697644
164	0xbba5238b	-0.0050396374
165	0x3d4b3133	0.049607467
166	0x3d8d128d	0.06888304
167	0xbc29bd47	-0.010360069
168	0x3e8af654	0.27141058
169	0xb95d6569	-0.0002111398
170	0x3e795632	0.24349287
171	0xbd91dabc	-0.071217984
172	0xbfba41e7	-1.4551362
173	0xba79e4b5	-0.0009532676
174	0x3e9fd5a6	0.31217688
175	0x3c581668	0.013188936
176	0x3d4afe91	0.04955918
177	0x3e474b8d	0.19462414
178	0x3ebb5cd5	0.36594263
179	0x3eb681fa	0.3564604
180	0x3df43998	0.11925048
181	0x3ea88d4a	0.32920295
182	0x3d1f2947	0.038857725
183	0x3d5fe1d5	0.05465873
184	0x3ea29d5c	0.3176068
185	0x3eb7184a	0.3576072
186	0x3e66ae2d	0.2252738
187	0x3da0deb6	0.07854979
188	0xbf51c9e9	-0.81948715
189	0x3cd1768c	0.025569223
190	0x3ea532ba	0.32265264
191	0x3bf3126d	0.007417968
192	0x3e765c41	0.2405863
193	0xbc60a3fb	-0.013710971
194	0x3dc22f60	0.09481692
195	0xbf868e4d	-1.0512177
196	0x3c1b5981	0.009481789
197	0xbd887906	-0.066637084
198	0x3d3fa645	0.046789426
199	0x3e9695cc	0.2941116
200	0x3eb2f8a4	0.34955323
201	0x3d334dde	0.04377543
202	0x3e8fa4b1	0.28055337
203	0x3e9b9d6e	0.30393547
204	0xbe94f998	-0.29096675
205	0x3e93fd6f	0.28904292
206	0x3e6209e6	0.22074088
207	0x3ea06158	0.31324267
208	0x3e7c9e0f	0.2466967
209	0xbffca6b3	-1.9738373
210	0x3d998b1a	0.07497235
211	0xbfc8e0ce	-1.5693605
212	0x3cadd084	0.021217592
213	0xbeba9486	-0.3644144
214	0x3d97ff35	0.07421724
215	0x3e939dd0	0.2883134
216	0x3cd47b0e	0.025937583
217	0x3ea03d80	0.3129692
218	0x3ea4752e	0.3212065
219	0x3e9674ef	0.29386088
220	0x3d6d787f	0.057976242
221	0x3e9e3849	0.30902317
222	0xbd01f8ec	-0.03173153
223	0x3ea06a3c	0.3133105
224	0x3e8ee244	0.27907002
225	0x3e94c919	0.29059675
226	0xbff4ddab	-1.9130148
227	0x3eaf6afb	0.34261307
228	0xbff52d08	-1.9154367
229	0x3ea0f7bb	0.31439003
230	0xbd923f20	-0.071409464
231	0x3ddda63d	0.10822723
232	0x3e907928	0.28217435
233	0xbbde2caf	-0.006780229
234	0xbcc0c7b9	-0.023532735
235	0x3c00d7b3	0.007863927
236	0x3e72c029	0.23706116
237	0xbceda143	-0.02900756
238	0x3e05d978	0.13071239
239	0xbb9dd842	-0.0048170397
240	0xbcda22b8	-0.026627883
241	0x3e80cdbb	0.2515696
242	0xbd0e990d	-0.03481393
243	0x3d5e410a	0.054261245
244	0x3e9e1e41	0.30882457
245	0xbd69a754	-0.057044342
246	0xbd5da2c3	-0.0541103
247	0x3cf68eaf	0.030097334
248	0xbc36da95	-0.011160512
249	0xbf4d2f13	-0.80149955
250	0x3e3d5e92	0.18493107
251	0xbfaa35a7	-1.3297623
252	0x3eb77505	0.35831466
253	0x3ea885c8	0.32914567
254	0x3eb9cd4b	0.3628944
255	0x3ef0e016	0.47045964

layer3.bias f4 [2]
0	0x3e1c1a6a	0.15244451
1	0x3da8633d	0.08222053
