DQN_Original_model.pth (torch, 72374 bytes, 6 tensors)

layer1.weight f4 [128, 4]
0.20973189 -0.112895854 -0.6889808 0.22187668 0.100548655 -0.18330815 0.27240592 -0.25098607
0.285582 -0.28184605 -1.1596807 -0.431653 0.29024836 -0.07902443 -0.1905957 -0.23918313
0.124711685 0.35950446 0.44678146 -0.29461527 -0.38102302 -0.11979929 1.1326306 0.28605804
0.18184355 -0.35004035 0.1304099 -0.38050973 -0.24479897 -0.4171948 -1.0813258 -0.342826
0.1882172 0.08877516 0.44687632 -0.1977777 -0.17837097 -0.35834625 -0.048467796 0.27879694
-0.118043154 0.47467938 0.8491236 -0.11331521 -0.29248062 0.18625702 0.62433416 -0.043684635
0.4998105 -0.39975426 -0.5247808 -0.0502211 0.3969761 -0.35615605 -0.5701717 -0.25998232
0.2856555 -0.2636606 -0.9517501 -0.077009045 0.111805685 0.2653696 1.4215796 0.2249657
-0.1741065 0.15399593 0.20644696 -0.11240314 0.75074035 0.19023824 -0.6161369 0.17382252
0.04279484 -0.018905085 -1.4222413 -0.17607993 -0.4037105 -0.13050856 0.54223657 0.18239126
-0.11798694 0.12013675 -0.6734475 -0.04345971 -0.03893266 0.34710976 -0.020135172 0.24399565
-0.070424356 0.36290875 -0.40601853 0.26420507 -0.036778953 -0.1521487 -0.33412704 -0.023159107
0.21224158 -0.11912151 -0.7799398 -0.21034355 -0.12977967 -0.028455256 -0.48130313 -0.39499295
-0.23823531 0.17631458 -0.37437734 0.010322952 0.501639 -0.21514565 -0.7807466 0.03231555
0.40599763 -0.38082403 0.29215014 -0.19479053 -0.05194777 0.038682427 1.6623416 0.27891237
-0.10299724 -0.09616193 -0.30352917 -0.3384115 0.02851327 0.22211678 -0.06436668 0.07434018
0.42363232 0.22912084 0.5517377 0.2141507 -0.35377336 0.179633 0.3098654 -0.2116658
0.33047992 -0.24865793 -1.3164325 -0.40420276 -0.39769518 0.1444425 0.4675473 0.10972093
-0.90259975 0.041917168 0.7823561 0.23902258 0.20305029 -0.30141464 -1.4629856 -0.49807787
-0.42693037 -0.012472761 -0.17603245 -0.21203855 -0.07099097 0.13108179 1.592901 0.4376934
0.51214784 0.4199205 -1.0505651 0.059550606 -0.6367172 -0.25626984 0.6268765 -0.16833304
-0.49451187 -0.3607031 -0.62280154 -0.38796476 0.0046655945 -0.011733744 1.9217948 0.18698284
0.091751225 0.5197243 -0.29186133 0.25961134 0.033765916 -0.059636805 -0.47582382 0.033302072
0.2118877 0.3192471 0.72537374 0.29376006 0.017330002 -0.57323223 -1.000928 -0.1993156
0.20240696 -0.31938508 -0.9694678 -0.44336912 -0.119277194 0.16087273 -1.1452689 -0.23271851
0.05610315 0.29909176 0.5146233 0.01466134 0.4869003 -0.11548994 -0.58285385 -0.2559667
0.028387783 -0.22211859 0.44245267 -0.23502687 -0.3118593 0.38065478 -0.0278866 0.08213774
0.15156913 -0.022235205 -0.12174026 0.06882299 0.18141145 -0.28385392 0.12882398 -0.21864642
0.025266817 0.20237201 1.4052267 0.39520663 -0.026046695 0.09307523 -0.45225745 0.30980247
0.7453702 -0.08164654 -0.39428395 -0.03037226 -0.17286253 -0.28313872 -0.59380966 -0.23742023
0.09928929 -0.12687962 0.25672114 -0.24073386 0.2653885 -0.10452092 -0.5369698 0.091327034
-0.111746125 -0.2473418 -0.70978683 -0.29228234 -0.14686444 0.09755614 0.53431946 0.18329385
00000000: f5c3 563e f135 e7bd 0c61 30bf a433 633e
00000010: 74ec cd3d 22b5 3bbe ca78 8b3e 3f81 80be
00000020: ce37 923e 204e 90be 6b70 94bf 9f01 ddbe
00000030: 6f9b 943e 8fd7 a1bd 852b 43be 6cec 74be
00000040: d768 ff3d f810 b83e 8ac0 e43e d0d7 96be
00000050: 7315 c3be 5559 f5bd 0afa 903f 3376 923e
00000060: 3235 3a3e 7d38 b3be 2c8a 053e 2cd2 c2be
00000070: 95ac 7abe 8f9a d5be e268 8abf e486 afbe
00000080: 02bc 403e c0cf b53d f9cc e43e 3d86 4abe
00000090: e1a6 36be 2979 b7be 2b86 46bd 79be 8e3e
000000a0: 9cc0 f1bd 2d09 f33e 2a60 593f ce11 e8bd
000000b0: 05c0 95be 29ba 3e3e 5dd4 1f3f a9ee 32bd
000000c0: 29e7 ff3e 97ac ccbe 0958 06bf a4b4 4dbd
000000d0: 7440 cb3e 165a b6be c6f6 11bf 671c 85be
000000e0: 7041 923e 86fe 86be e5a5 73bf ebb6 9dbd
000000f0: 61fa e43d 86de 873e 52f6 b53f 695d 663e
00000100: f948 32be 1cb1 1d3e d566 533e 9e33 e6bd
00000110: 8530 403f d0cd 423e 26bb 1dbf 88fe 313e
00000120: a449 2f3d d6de 9abc 010c b6bf 4c4e 34be
00000130: 25b3 cebe 09a4 05be 04d0 0a3f c6c4 3a3e
00000140: 23a3 f1bd 420a f63d 0e67 2cbf cf02 32bd
00000150: da77 1fbd 5fb8 b13e 84f2 a4bc ffd9 793e
00000160: a53a 90bd 2dcf b93e a9e1 cfbe e345 873e
00000170: 87a5 16bd decc 1bbe b312 abbe 2bb8 bdbc
00000180: db55 593e faf5 f3bd 22aa 47bf 4d64 57be
00000190: f6e4 04be ff1a e9bc 5d6d f6be 843c cabe
000001a0: f5f3 73be cf8b 343e 63ae bfbe 9921 293c
000001b0: 6a6b 003f 244f 5cbe 02df 47bf 4f5d 043d
000001c0: ecde cf3e 5efb c2be b494 953e 2b77 47be
000001d0: 2fc7 54bd 7771 1e3d 9cc7 d43f 9acd 8e3e
000001e0: 38f0 d2bd 8cf0 c4bd 2d68 9bbe 4644 adbe
000001f0: a994 e93c 9572 633e aed2 83bd aa3f 983d
00000200: 56e6 d83e a79e 6a3e af3e 0d3f 524a 5b3e
00000210: c821 b5be b7f1 373e ada6 9e3e ebbe 58be
00000220: aa34 a93e 2fa0 7ebe dc80 a8bf aaf3 cebe
00000230: b49e cbbe bce8 133e 5c62 ef3e 5eb5 e03d
00000240: c710 67bf 56b1 2b3d 7d48 483f 56c2 743e
00000250: 6aec 4f3e 0553 9abe 1d43 bbbf 1004 ffbe
00000260: 9e96 dabe 8d5a 4cbc da41 34be a220 59be
00000270: b763 91bd 4e3a 063e 2ee4 cb3f 5919 e03e
00000280: 1f1c 033f d2ff d63e eb78 86bf 56eb 733d
00000290: e6ff 22bf cd35 83be fa7a 203f 7f5f 2cbe
000002a0: a930 fdbe 14ae b8be ec6f 1fbf 51a3 c6be
000002b0: d8e1 983b e43e 40bc 5ffd f53f 6e78 3f3e
000002c0: 11e8 bb3d a70c 053f d96e 95be c7eb 843e
000002d0: 214e 0a3d b945 74bd 2e9f f3be c167 083d
000002e0: 17f9 583e 5b74 a33e 18b2 393f b867 963e
000002f0: a6f7 8d3c 59bf 12bf 691e 80bf 6319 4cbe
00000300: c543 4f3e 7186 a3be 0b2f 78bf 4701 e3be
00000310: 9a47 f4bd d2bb 243e 2c98 92bf c34d 6ebe
00000320: 6bcc 653d 8e22 993e 5abe 033f 1e36 703c
00000330: ff4a f93e fd85 ecbd e935 15bf 110e 83be
00000340: 7f8d e83c 0e73 63be 2889 e23e e2aa 70be
00000350: 06ac 9fbe 2fe5 c23e 7072 e4bc d537 a83d
00000360: f034 1b3e 9b26 b6bc f552 f9bd 11f3 8c3d
00000370: ecc3 393e 4d55 91be 6fea 033e d9e4 5fbe
00000380: 5bfc ce3c 9c3a 4f3e 78de b33f 8658 ca3e
00000390: e15f d5bc 3a9e be3d 4a8e e7be 6e9e 9e3e
000003a0: 95d0 3e3f 4d36 a7bd 96df c9be 3fcf f8bc
000003b0: e002 31be 8ff7 90be e903 18bf 4a1e 73be
000003c0: 2f58 cb3d bbec 01be f470 833e f082 76be
000003d0: 00e1 873e 100f d6bd da76 09bf ab09 bb3d
000003e0: 27db e4bd 2b47 7dbe 97b4 35bf 08a6 95be
000003f0: a263 16be 83cb c73d 29c9 083f 62b1 3b3e

layer1.bias f4 [128]
0.043254822 0.36659843 -0.37365508 0.3821161 0.18946992 -0.6092566 0.30445012 -0.19240683
0.37199023 0.48075682 -0.35553107 0.040750176 -0.084593914 0.4638861 0.22711538 -0.18530019
0.5140277 0.15756842 -0.31547308 -0.44258282 0.31386116 0.40855753 0.40248364 0.5524294
-0.107613675 -0.29686788 0.40424806 0.45066774 0.3225041 -0.42885932 0.5063128 0.27076867
-0.10991068 0.44787428 -0.422619 0.22731948 -0.10606802 -0.44352713 -0.58650243 -0.4991129
-0.42015737 0.4248724 -0.3502336 -0.36327118 0.3381403 0.3332466 -0.2402774 0.08799897
-0.44778043 -0.42994985 0.28011197 0.107874975 0.494032 0.35894838 -0.43109655 -0.3560816
-0.46763694 -0.26318055 0.19144376 0.29349834 0.49173436 0.5311139 0.38987312 0.31944782
-0.45741153 0.4891568 0.405513 0.5205554 0.4472339 0.5354748 0.21797694 0.09398143
0.2273065 -0.46947616 -0.28592712 -0.37643456 0.4070286 0.099663034 0.46954435 -0.38884774
-0.2384377 -0.51230896 0.44170672 -0.49845505 -0.1914842 0.21994649 0.36490104 -0.34185484
0.53761667 -0.41988876 -0.4627176 -0.23917708 -0.24804519 0.11973062 -0.32347864 -0.3502662
0.48716092 -0.21986423 0.44568747 -0.094517685 0.32568878 -0.40222716 0.24955127 0.19625343
-0.039272368 0.38353395 0.38126507 -0.083612226 0.054398745 -0.5637429 0.22296698 0.5015985
0.32301298 0.06562842 0.18494867 0.28197595 0.41172108 -0.40835088 -0.17383154 0.2001417
-0.40908086 -0.4739189 0.49207336 -0.18077606 0.20944054 -0.42261302 -0.33522788 0.27554074
00000000: f82b 313d cab2 bb3e b84f bfbe b9a4 c33e
00000010: 6704 423e 3ef8 1bbf e3e0 9b3e 4c06 45be
00000020: 8175 be3e c225 f63e 2b08 b6be a8e9 263d
00000030: 933f adbd 7b82 ed3e ef90 683e 55bf 3dbe
00000040: 5297 033f 9e59 213e b085 a1be 379a e2be
00000050: 69b2 a03e 742e d13e 5612 ce3e 036c 0d3f
00000060: 8f64 dcbd 11ff 97be 9af9 ce3e ecbd e63e
00000070: 421f a53e 7393 dbbe b79d 013f 31a2 8a3e
00000080: da18 e1bd c74f e53e 8461 d8be 70c6 683e
00000090: 313a d9bd fd15 e3be 0625 16bf ba8b ffbe
000000a0: de1e d7be e088 d93e d251 b3be aefe b9be
000000b0: ba20 ad3e 4c9f aa3e 470b 76be ce38 b43d
000000c0: 7a43 e5be 6322 dcbe d66a 8f3e 8eed dc3d
000000d0: c3f1 fc3e 15c8 b73e b0b8 dcbe 5450 b6be
000000e0: 1c6e efbe 9abf 86be d509 443e 6a45 963e
000000f0: 9bc4 fb3e 15f7 073f 739d c73e aa8e a33e
00000100: d831 eabe c372 fa3e 669f cf3e 1e43 053f
00000110: d7fb e43e e014 093f 5935 5f3e 5679 c03d
00000120: 09c3 683e 2e5f f0be 0a65 92be 08bc c0be
00000130: 0d66 d03e 221c cc3d 1e68 f03e 0d17 c7be
00000140: 0329 74be ae26 03bf 6227 e23e 8035 ffbe
00000150: 6f14 44be a739 613e 4fd4 ba3e 9907 afbe
00000160: 3fa1 093f a9fb d6be 52e9 ecbe d6ea 74be
00000170: 8fff 7dbe 5435 f53d fe9e a5be 1756 b3be
00000180: 286d f93e 1724 61be 2631 e43e 7d92 c1bd
00000190: aec0 a63e b8f0 cdbe 5e8a 7f3e a9f6 483e
000001a0: 10dc 20bd 905e c43e 2d35 c33e e33c abbd
000001b0: 38d1 5e3d 7451 10bf 7551 643e c268 003f
000001c0: f561 a53e 3168 863d 2f63 3d3e 275f 903e
000001d0: 1bcd d23e 5e13 d1be e500 32be f2f1 4c3e
000001e0: 0c73 d1be 80a5 f2be 0af1 fb3e 5c1d 39be
000001f0: 9577 563e bc60 d8be fda2 abbe ad13 8d3e

layer2.weight f4 [128, 128]
0.053458456 -0.068488926 -0.053082816 -0.26203385 -0.11647633 0.9892513 -0.027492369 -0.21722959
0.027459241 0.012778141 0.03612307 0.07741543 0.06999467 -0.20496236 -0.3708803 0.45207912
-0.21626708 0.03482014 -0.09004188 0.40662923 -0.6068319 -0.023484128 -0.052307863 -0.19511424
-0.16996613 -0.040606294 -0.36396042 -0.098104924 0.105436414 1.1539179 -0.3137509 -0.14108053
0.2682912 -0.30188036 -0.10790379 -0.0020228298 0.3209342 -0.09841422 0.0036230034 0.7420382
0.23297143 0.017438453 -0.0069546816 0.8116744 -0.10366619 -0.121013 0.6580614 -0.13797186
-0.040921282 0.014817344 0.016206218 0.10516567 -0.06272455 -0.28749806 0.09641838 0.00072234386
0.8658087 0.18505834 0.014328815 -0.37415755 -0.1845441 -0.105861105 -0.47863021 0.04811762
-0.1315247 -0.077353016 -0.028646579 0.099494986 0.03609317 -0.12144341 -0.3753933 0.21271059
-0.31150156 -0.11385493 -0.25360796 0.0256736 -0.20440884 -0.046720024 -0.08721579 1.3446834
0.0075319167 0.41330615 -0.05842755 -0.21180557 0.12008703 -0.28408444 -0.108716376 -0.0521113
-0.10506402 -0.06697443 0.67074335 0.10074603 -0.06839328 0.2643776 -0.025466783 0.5639562
0.07830309 0.5488336 -0.12291422 0.28953907 -0.046742886 0.34214082 -0.010148271 0.21412702
-0.3398162 -0.0058896407 -0.20713022 0.04510811 0.15607685 -0.1839761 -0.15485434 -0.030161936
-0.036340587 -0.13441178 0.1337106 0.033178702 -0.07700722 0.24454243 -0.091233276 0.14529824
-0.013464707 0.63680613 -0.3092812 0.15721473 -0.47047237 1.3164346 -0.028390327 0.05141109
-0.064088 0.16190034 0.14741188 0.16856404 0.12127304 -0.035711505 0.09206965 -0.3767773
0.11418335 0.012554149 -0.09282379 0.052253466 -0.017364332 0.20563117 0.09767951 -0.30728522
0.062043738 0.09179117 -0.14267403 0.31355152 0.058357373 0.13317177 0.09525106 0.08004344
-0.304199 -0.07323283 0.19303569 0.05896926 0.15280448 -3.3401234 0.1107198 0.029454535
-0.052599516 0.13473003 0.050523035 0.013402374 -0.2308277 0.46660239 0.013494343 -2.1275072
-0.41628847 0.106083766 -0.3943396 -1.868112 0.13596709 0.0542237 -0.04490324 0.06693122
-0.77528685 0.034884524 0.15160528 0.09516838 0.081563465 0.12223334 -0.05038407 0.02681075
-0.852022 0.08419884 0.047910087 0.058465417 0.10049375 0.16325589 0.16158818 0.06906002
0.3618667 0.12988926 0.0023786963 0.15750663 0.10866819 0.13785851 0.024791425 0.01980185
0.21947178 -0.670037 -0.07133284 -0.10615952 0.12657008 0.018666353 0.14654785 -2.138131
0.069264054 -0.3434888 0.12310252 -0.24161896 -0.044488795 -0.027449422 0.13741916 -0.234753
0.16876328 -0.1280028 -0.32188562 0.0074662324 0.006100504 -0.05523834 -0.3654101 -0.9203346
0.041610166 -0.6795542 0.09047506 -0.0016763957 0.11690947 -0.0875267 0.09800767 0.3688366
0.029719314 0.053027257 0.14636302 0.048406463 0.513244 -0.07226144 0.122278795 0.038642943
-1.0715048e-06 -0.03278387 0.14104441 0.17706917 0.01719172 -0.14128746 0.03052012 0.04858541
0.16773392 -1.8276376 0.06559863 0.05474905 0.0030118884 -1.8698534 -0.050762545 0.039804444
00000000: 41f7 5a3d ec43 8cbd 5e6d 59bd 4d29 86be
00000010: 248b eebd 933f 7d3f ad37 e1bc 6f71 5ebe
00000020: 34f2 e03c 685b 513c c9f5 133d fb8b 9e3d
00000030: 5e59 8f3d a7e1 51be 06e4 bdbe ea76 e73e
00000040: 1e75 5dbe 909f 0e3d e167 b8bd b531 d03e
00000050: 5659 1bbf c961 c0bc c540 56bd 07cc 47be
00000060: 9a0b 2ebe c952 26bd 0559 babe 3ceb c8bd
00000070: 0cef d73d 95b3 933f f5a3 a0be 6a77 10be
00000080: 775d 893e 1090 9abe aafc dcbd 7491 04bb
00000090: 7d51 a43e 658d c9bd e96f 6d3b 37f6 3d3f
000000a0: 1090 6e3e 16db 8e3c 19e4 e3bb e5c9 4f3f
000000b0: f04e d4bd aad5 f7bd b676 283f 7f48 0dbe
000000c0: 139d 27bd 72c4 723c e7c2 843c 1961 d73d
000000d0: bb75 80bd f232 93be 0077 c53d ad5b 3d3a
000000e0: a4a5 5d3f ef7f 3d3e 68c3 6a3c 9491 bfbe
000000f0: 21f9 3cbe b5cd d8bd 050f f5be fb16 453d
00000100: 69ae 06be 426b 9ebd 3bac eabc 07c4 cb3d
00000110: 6fd6 133d 53b7 f8bd 8d33 c0be ced0 593e
00000120: 227d 9fbe c62c e9bd e7d8 81be 7151 d23c
00000130: 8d50 51be 7f5d 3fbd 319e b2bd 961e ac3f
00000140: 4cce f63b dd9c d33e ba51 6fbd 8fe3 58be
00000150: 30f0 f53d 8473 91be b1a6 debd a972 55bd
00000160: ce2b d7bd e429 89bd d6b5 2b3f ef53 ce3d
00000170: c711 8cbd 805c 873e b79f d0bc 6f5f 103f
00000180: 5f5d a03d 5c80 0c3f 73ba fbbd 773e 943e
00000190: 7875 3fbd 152d af3e ef44 26bc 1d44 5b3e
000001a0: 64fc adbe e3fd c0bb f219 54be 48c3 383d
000001b0: 9cd2 1f3e 3b64 3cbe 2392 1ebe 2a16 f7bc
000001c0: ded9 14bd 3ea3 09be 6eeb 083e 64e6 073d
000001d0: f6b5 9dbd 5569 7a3e 83d8 babd 10c9 143e
000001e0: 139b 5cbc ba05 233f 1b5a 9ebe e6fc 203e
000001f0: c1e1 f0be ee80 a83f d592 e8bc 6f94 523d
00000200: 9240 83bd 34c9 253e 24f3 163e 0d9c 2c3e
00000210: 005e f83d 3a46 12bd 038f bc3d f4e8 c0be
00000220: f6d8 e93d ebaf 4d3c 661a bebd bb07 563d
00000230: a53f 8ebc fa90 523e 320c c83d 7d54 9dbe
00000240: 9321 7e3d 02fd bb3d 2419 12be d389 a03e
00000250: 2408 6f3d 2e5e 083e fd12 c33d d1ed a33d
00000260: f9bf 9bbe 18fb 95bd 26ab 453e c089 713d
00000270: c778 1c3e 95c4 55c0 10c1 e23d a34a f13c
00000280: 9772 57bd abf6 093e 3ef1 4e3d a295 5b3c
00000290: 195e 6cbe 82e6 ee3e 6017 5d3c 1429 08c0
000002a0: c323 d5be 7242 d93d e1e6 c9be 4b1e efbf
000002b0: f53a 0b3e ac19 5e3d 76ec 37bd 3c13 893d
000002c0: 3379 46bf 13e3 0e3d 6a3e 1b3e a4e7 c23d
000002d0: bf0a a73d 7955 fa3d 875f 4ebd 38a2 db3c
000002e0: 1d1e 5abf 7170 ac3d 5e3d 443d 6f79 6f3d
000002f0: abcf cd3d 8d2c 273e 5f77 253e 576f 8d3d
00000300: 9846 b93e b101 053e e7e3 1b3b 6b49 213e
00000310: 6e8d de3d c82a 0d3e 6317 cb3c 7d37 a23c
00000320: 36bd 603e 8b87 2bbf f416 92bd 2a6a d9bd
00000330: 969b 013e 2eea 983c a410 163e 23d7 08c0
00000340: 50da 8d3d c4dd afbe 2d1d fc3d f66a 77be
00000350: e239 36bd 9cdd e0bc 9cb7 0c3e 1763 70be
00000360: 48d0 2c3e 2a13 03be 31ce a4be 4ca7 f43b
00000370: bde6 c73b 9941 62bd 0817 bbbe 0c9b 6bbf
00000380: 6c6f 2a3d 44f7 2dbf fd4a b93d 81ba dbba
00000390: 3b6e ef3d 3341 b3bd 3fb8 c83d 27d8 bc3e
000003a0: eb75 f33c 1c33 593d 30e0 153e db45 463d
000003b0: f563 033f cefd 93bd 4e6d fa3d 1048 1e3d
000003c0: a0d0 8fb5 6148 06bd f26d 103e 9f51 353e
000003d0: a6d5 8c3c a9ad 10be 5505 fa3c 7f01 473d
000003e0: 71c2 2b3e 07f0 e9bf 9358 863d 8a40 603d
000003f0: 1a63 453b 5b57 efbf 63ec 4fbd fc09 233d

layer2.bias f4 [128]
-0.06213678 0.21071598 0.21622266 0.016586443 -0.03651608 -0.020219656 -0.11350124 0.22816621
0.14209433 -0.084745735 0.13225184 -0.05586916 -0.070746414 0.07623136 0.1927086 -0.07958341
-0.006197451 0.024583396 0.09618429 0.15320632 0.20558713 -0.0128045 0.15682934 0.17807844
-0.058891896 -0.011389081 0.12696098 0.008609867 0.21059318 0.10632816 0.05639201 0.036368027
-0.07909259 -0.08278477 0.03308679 0.13158153 0.22125463 0.043088946 -0.03377623 0.08584483
0.15906434 0.13765018 -0.042760458 -0.014724723 0.23674895 0.10554761 -0.119460784 0.02475002
-0.04075818 -0.100423194 -0.034414798 -0.12966478 0.056191333 0.17106403 0.19039848 0.20047578
0.10602533 -0.021344878 0.12174309 0.013830886 0.031452756 -0.080990374 -0.16758043 -0.018513687
-0.043433934 0.23914576 0.04947807 -0.15179294 0.20130198 0.144226 0.027988637 0.1354665
0.1939221 0.1558448 0.052160583 -0.16898535 0.037113383 0.21646592 0.09877126 -0.055920847
0.0051843245 0.11474147 0.0020268664 0.16389334 0.02355723 0.16022743 -0.044181485 -0.05601917
0.026093274 0.21112649 0.023644542 -0.05867743 0.01685462 -0.1122987 0.028873064 0.12376691
-0.034792483 0.05677434 -0.08810489 0.17782621 0.12139594 0.0050450107 -0.0011018355 0.14020288
-0.013343956 -0.0180146 0.1419072 0.044022106 -0.038232278 -0.042704973 0.019816194 0.10635829
-0.060063593 0.16892952 0.18178457 -0.013743595 0.1616865 -0.046649493 0.20757106 -0.07148383
-0.07043948 0.09414983 0.040399007 0.18843779 0.006290795 0.16115351 0.10254561 -0.07179043
00000000: 2383 7ebd eec5 573e 7969 5d3e 4be0 873c
00000010: e391 15bd b1a3 a5bc 5773 e8bd 67a4 693e
00000020: 2d81 113e 2c8f adbd 076d 073e 0fd7 64bd
00000030: 7fe3 90bd 301f 9c3d 6755 453e a0fc a2bd
00000040: fd13 cbbb 1e63 c93c 45fc c43d 1ee2 1c3e
00000050: 6f85 523e f7c9 51bc df97 203e 325a 363e
00000060: a138 71bd 4599 3abc 0f02 023e 6610 0d3c
00000070: bda5 573e 94c2 d93d 4ffb 663d a4f6 143d
00000080: 4cfb a1bd 108b a9bd 0486 073d 4fbd 063e
00000090: 9390 623e 097e 303d f258 0abd 6acf af3d
000000a0: c3e1 223e 2bf4 0c3e 9725 2fbd f73f 71bc
000000b0: 516e 723e 5829 d83d dba7 f4bd 8ec0 ca3c
000000c0: 0df2 26bd adaa cdbd 88f6 0cbd d8c6 04be
000000d0: e228 663d 692b 2f3e d2f7 423e 8649 4d3e
000000e0: cf23 d93d 74db aebc 7154 f93d f19a 623c
000000f0: 9bd4 003d 48de a5bd 349a 2bbe 04aa 97bc
00000100: c8e7 31bd a0e2 743e 84a9 4a3d 9c6f 1bbe
00000110: 1b22 4e3e fbaf 133e 6d48 e53c bbb7 0a3e
00000120: 8493 463e c795 1f3e 56a6 553d 7f0a 2dbe
00000130: 3404 183d 3ea9 5d3e 9648 ca3d 420d 65bd
00000140: 44e1 a93b 93fd ea3d 2dd5 043b a8d3 273e
00000150: 18fb c03c a912 243e a5f7 34bd 5b74 65bd
00000160: 90c1 d53c 8b31 583e 33b2 c13c bf57 70bd
00000170: b312 8a3c dcfc e5bd 3487 ec3c 8179 fd3d
00000180: 9082 0ebd 368c 683d 5670 b4bd 1318 363e
00000190: 6f9e f83d 9e50 a53b 776b 90ba 5891 0f3e
000001a0: 9ca0 5abc 5b93 93bc 1f50 113e 8650 343d
000001b0: 7399 1cbd 69eb 2ebd 9255 a23c 60d2 d93d
000001c0: 3e05 76bd dcfb 2c3e bc25 3a3e d12c 61bc
000001d0: 2591 253e 8a13 3fbd 828d 543e 1d66 92bd
000001e0: 9342 90bd a0d1 c03d 6e79 253d d6f5 403e
000001f0: 0323 ce3b 6d05 253e 6f03 d23d dc06 93bd

layer3.weight f4 [2, 128]
0.17795636 0.37941745 0.29295108 -0.017255805 -0.057369307 -0.015964026 -1.5002004 0.072492726
0.30627653 0.04491401 0.408661 -0.0084975 -0.018176934 -0.32422268 0.40000647 -0.06218437
-0.031659972 -0.033792954 0.29285958 0.27681988 0.21365829 0.012006861 0.39613977 0.48350948
-0.2617993 0.009479976 0.38461775 -0.044569165 0.24420235 0.0708214 -0.06282941 0.05946504
0.028809166 0.025669914 -0.025082728 0.2842564 -0.15079652 -0.02707802 -0.008234871 0.31670716
0.24024722 0.043060064 -0.03729565 0.023766674 -0.44148102 0.33990243 -0.9665202 0.037378024
0.010261541 0.0332904 -0.032620877 -1.3531363 -0.045135774 -0.11746015 0.23379171 0.28718472
0.21871793 -0.055807892 0.37325516 -0.06371906 -0.0048271012 -0.036159165 -0.6863567 -0.027339328
-0.04820926 -0.12021057 -0.026880456 -0.26573282 0.20160206 0.362108 0.027045459 0.30382338
0.27265447 0.08135246 -0.032737266 -1.2103704 -0.044899378 0.20327498 0.2891804 -0.00016647734
-0.0115299 0.40251243 -0.02797812 0.27087387 -0.039228424 0.3517329 -0.0741443 -0.019129172
-0.0118415635 0.22603367 -0.021534564 -0.031488597 0.063395925 -0.1540967 -0.04556353 0.31429303
-0.01999678 -0.047214203 -0.0089624515 0.15358117 0.29695597 -0.051367655 0.3158768 0.041203268
-0.018589828 0.0040147686 0.23259562 0.022534324 -0.008786779 -0.009024497 0.024812257 0.19483341
-0.04280733 -0.10229052 0.20324908 -0.029865079 0.24181837 -0.016065111 0.39422998 0.04896643
-0.030976595 0.21963163 0.008644836 0.18340462 0.0086283125 0.1212213 0.23006755 0.004132338
-0.9520439 -0.06965562 0.17829837 -0.0107179815 -0.011496234 -0.014040417 0.026756233 0.36927474
0.2459672 0.054325566 -0.124515556 0.01142898 -0.039001763 0.615268 -0.26278383 0.04754189
0.026324091 0.02008673 0.24248181 0.17466214 0.31666946 -0.036045574 -0.035267785 -0.5348455
-0.74114305 -0.0022596747 -0.09777046 -0.013089857 0.2679538 0.38562858 -0.028366506 -0.059366014
0.011190261 0.01628499 -0.05021917 0.16965282 0.41395015 -0.050278388 -0.06795798 0.13993238
0.2801541 0.37339517 -0.04211052 -0.059065476 0.4526328 0.05341121 -0.6795362 -0.054568067
-0.037129283 -0.025771644 -0.04965435 -0.00091356924 -0.013114997 0.42673376 0.29397386 0.20859239
0.30640912 -0.05820523 -0.03858868 -0.0070426147 0.021551894 0.06273765 -1.5932517 0.013370196
-0.07692962 0.41449836 -0.037459303 -1.7466177 0.26283178 0.1655578 -0.013695802 0.2226985
0.25052607 0.38294154 -0.05585298 0.6133594 -0.016860867 0.28517967 0.24050301 0.057801295
-0.04667926 -0.025643835 0.037368767 0.30371898 0.012738755 0.08090879 0.0579374 -0.028387455
-0.035972368 0.1995123 -0.020326525 0.020900814 -0.02774465 0.34655726 -0.016406393 0.28112474
-0.043632716 0.008185622 0.028593717 0.3261031 0.24070913 -0.0025418254 -0.3259684 0.38930634
0.00091761875 0.017221782 0.29204938 -0.0216634 -0.04336367 0.00052173814 -0.05168048 0.31740105
0.0013196731 0.38164777 0.28143132 0.008195289 0.28719124 0.06098872 -0.077198006 -0.059760056
0.0020376786 0.26337957 -0.041174892 0.34310722 0.0010786336 0.35968605 0.26221514 0.0544561
00000000: 313a 363e 0143 c23e affd 953e 0c5c 8dbc
00000010: 14fc 6abd fdc6 82bc 9106 c0bf 1177 943d
00000020: 47d0 9c3e c1f7 373d 043c d13e 1939 0bbc
00000030: cbe7 94bc 8400 a6be a6cd cc3e 0ab5 7ebd
00000040: e3ad 01bd 7b6a 0abd b1f1 953e 56bb 8d3e
00000050: 3dc9 5a3e 6db8 443c d5d2 ca3e 8e8e f73e
00000060: 8f0a 86be e751 1b3c 9eec c43e 288e 36bd
00000070: 2e10 7a3e cf0a 913d b5ac 80bd 9d91 733d
00000080: 3301 ec3c b649 d23c 4b7a cdbc 0e8a 913e
00000090: 676a 1abe b9d2 ddbc 8deb 06bc 7127 a23e
000000a0: 5e03 763e c05f 303d 53c3 18bd 54b2 c23c
000000b0: cd09 e2be b107 ae3e de6d 77bf b319 193d
000000c0: 0620 283c 845b 083d 789d 05bd 9233 adbf
000000d0: 4ae0 38bd f28e f0bd 1867 6f3e e009 933e
000000e0: 98f7 5f3e d196 64bd 4d1b bf3e 237f 82bd
000000f0: a92c 9ebb a21b 14bd 13b5 2fbf baf6 dfbc
00000100: 1377 45bd f630 f6bd 6734 dcbc 220e 88be
00000110: c570 4e3e 3866 b93e 708e dd3c bd8e 9b3e
00000120: 5e99 8b3e 1e9c a63d 8317 06bd 6bed 9abf
00000130: 69e8 37bd 5127 503e 740f 943e 6c90 2eb9
00000140: e8e7 3cbc 1c16 ce3e 5f32 e5bc fbaf 8a3e
00000150: fcad 20bd 5616 b43e f7d8 97bd c8b4 9cbc
00000160: 1e03 42bc 5f75 673e 4169 b0bc 30fa 00bd
00000170: b9d5 813d 86cb 1dbe d3a0 3abd 04eb a03e
00000180: 4ad0 a3bc ae63 41bd 3fd7 12bc 6244 1d3e
00000190: 9d0a 983e e466 52bd 9bba a13e c2c4 283d
000001a0: b249 98bc 528e 833b 8c2d 6e3e e799 b83c
000001b0: 6cf6 0fbc 7cdb 13bc 1343 cb3c 6982 473e
000001c0: bd56 2fbd b17d d1bd 8720 503e 9ca7 f4bc
000001d0: 3c9f 773e fb9a 83bc 83d8 c93e 0691 483d
000001e0: a1c2 fdbc 1de7 603e 12a3 0d3c 6cce 3b3e
000001f0: c45d 0d3c df42 f83d d496 6b3e 9068 873b
00000200: 26b9 73bf 9ba7 8ebd d993 363e 799a 2fbc
00000210: b35a 3cbc c709 66bc e32f db3c 9411 bd3e
00000220: d3de 7b3e 7c84 5e3d 0302 ffbd 9e40 3b3c
00000230: 50c0 1fbd 3482 1d3f 9a8b 86be 49bb 423d
00000240: 9fa5 d73c ed8c a43c 274d 783e a2da 323e
00000250: 8022 a23e 86a4 13bd f474 10bd a2eb 08bf
00000260: 8dbb 3dbf 0d17 14bb e13b c8bd d776 56bc
00000270: 3e31 893e 1c71 c53e e060 e8bc c729 73bd
00000280: 5b57 373c 1968 853c 9eb2 4dbd 78b9 2d3e
00000290: 46f1 d33e b6f0 4dbd 8e2d 8bbd 6f4a 0f3e
000002a0: 5c70 8f3e a72d bf3e 157c 2cbd a4ee 71bd
000002b0: 7dbf e73e b7c5 5a3d 16f6 2dbf c482 5fbd
000002c0: e014 18bd 0e1f d3bc 5c62 4bbd 987c 6fba
000002d0: 49e0 56bc d97c da3e be83 963e 3e99 553e
000002e0: a8e1 9c3e 9b68 6ebd 2a0f 1ebd bcc5 e6bb
000002f0: 998d b03c 997c 803d acef cbbf ab0e 5b3c
00000300: 478d 9dbd 2139 d43e ed6e 19bd 2b91 dfbf
00000310: e391 863e fc87 293e 5b64 60bc 130b 643e
00000320: f444 803e ea10 c43e 18c6 64bd 1f05 1d3f
00000330: cd1f 8abc 1203 923e 6c46 763e 0dc1 6c3d
00000340: c032 3fbd 0513 d2bc fe0f 193d 0e81 9b3e
00000350: 36b6 503c 82b3 a53d c44f 6d3d cf8c e8bc
00000360: c357 13bd f44c 4c3e d083 a6bc 2f38 ab3c
00000370: c048 e3bc f46f b13e b366 86bc 95ef 8f3e
00000380: 38b8 32bd fd1c 063c 5f3d ea3c fcf6 a63e
00000390: 747c 763e c194 26bb 55e5 a6be 2953 c73e
000003a0: 5a8c 703a b214 8d3c 7f87 953e 7177 b1bc
000003b0: 1b9e 31bd 41c5 083a e9ae 53bd 6482 a23e
000003c0: e2f8 ac3a 5667 c33e c417 903e 8945 063c
000003d0: bb0a 933e 4fcf 793d fd19 9ebd f6c6 74bd
000003e0: 938a 053b b0d9 863e 01a7 28bd c0ab af3e
000003f0: f060 8d3a c528 b83e 1041 863e 5c0d 5f3d

layer3.bias f4 [2]
0.0835857 0.1957937
00000000: fb2e ab3d 257e 483e
